Checkpoint/THU_MTCN_01.pth (torch, 57556 bytes, 52 tensors)

block_shared_feature_extractor.1.weight f4 [8, 1, 1, 32]
0.029840752 -0.19044171 -0.04140998 0.12938534 0.18661524 -0.122630864 -0.2115706 0.110044375
0.04495343 0.017066488 -0.027012099 -0.056653976 0.010823112 0.0441209 -0.11488356 0.08470782
0.06903284 -0.17029549 0.04149788 0.0017564296 0.10518635 0.08555215 -0.09401257 -0.10205495
0.08456516 0.0878643 -0.14287983 0.07540171 0.10534598 0.017554248 -0.110972814 0.050982445
-0.008944574 -0.04360663 0.041695107 0.06649612 -0.09970744 0.09492973 -0.043358956 -0.06979987
0.13298039 -0.11734231 0.027477717 0.13054237 -0.06814064 -0.16792245 0.22411306 -0.15526016
0.10852662 -0.0361379 0.03761792 -0.050612222 -0.057731953 0.021960229 0.18969278 -0.14865896
-0.07565791 0.097058155 -0.032422543 -0.03433827 0.14095134 -0.063727014 -0.11946314 0.09111459
-0.12235046 0.112949125 -0.023867093 -0.12624145 0.081284985 -0.008117193 -0.119248316 0.04446566
-0.029310225 -0.05216221 -0.00021523192 -0.09195707 -0.06762971 0.10205322 -0.050504968 -0.12948965
0.060953185 0.022790631 0.15249051 0.009420445 0.110195436 0.115232244 -0.16237585 -0.09369455
-0.18200311 -0.030970097 -0.08326731 -0.16158022 -0.14998798 -0.16146691 -0.09169677 -0.16704936
-0.13366002 -0.07412731 0.22364898 -0.08045566 0.087675825 0.049441267 -0.09380298 -0.031704456
-0.016455403 0.07118015 -0.0004879216 -0.0075201835 -0.078289084 0.072893165 -0.06454786 0.07585915
0.1028623 -0.051392853 -0.020212535 -0.07290547 -0.04860396 0.19353284 -0.06492437 -0.121455885
0.07242119 0.09914112 -0.033442277 -0.10003103 0.12280874 0.03340774 -0.12607081 0.007588626
0.050569363 -0.07300126 0.11252034 0.07703767 0.1104277 -0.185036 0.08869814 -0.091404624
0.08038821 -0.046460733 -0.0081043495 -0.12958755 0.19116671 -0.05290438 0.18015917 0.049131833
-0.16980115 -0.060808286 0.12931673 0.086624324 -0.13920341 0.07889549 -0.036467534 0.090613075
-0.08784046 -0.064268716 -0.08360786 0.11318533 0.12245702 -0.0652111 0.08795889 -0.06593274
-0.03685734 -0.055888627 0.092604294 0.033069026 -0.005701942 -0.06253967 -0.11492794 0.1536773
-0.041048486 0.15100266 -0.21065317 0.09723214 -0.07504358 0.051305942 0.028611546 0.082705736
-0.17661987 -0.037106205 0.19993079 -0.08650146 -0.05089412 -0.005272647 0.10900251 -0.043737076
-0.031940628 0.047605604 -0.06544905 0.03886266 0.09807836 -0.08192848 -0.00913058 0.0077934884
0.038819086 0.032946274 -0.09171105 0.09385835 -0.17287235 0.15051483 -0.108191 -0.15186587
0.12449047 0.1919995 -0.0024224306 -0.12726855 -0.12399617 -0.09519663 -0.08085495 0.16617846
0.12351208 -0.025392061 -0.04568141 0.08116877 -0.099843375 -0.10209704 -0.14552577 0.044716008
0.1866618 -0.07009336 0.0707142 -0.07923326 0.034462895 0.15829824 0.14782311 -0.13166407
0.104896404 -0.092491515 0.11227143 -0.010223556 -0.119921416 -0.048089053 0.124482565 0.033722527
-0.057546206 -0.09675716 0.03619854 -0.018314201 -0.0300431 0.09071622 -0.20353742 0.11987635
0.05725468 -0.121893786 -0.11217656 0.19188862 0.07230084 0.007051675 -0.08510321 -0.017480591
0.07943544 -0.09163915 0.029693136 0.12718128 -0.2132784 0.196104 0.009108069 -0.12164112
00000000: 9874 f43c 2703 43be 839d 29bd 977d 043e
00000010: 1118 3f3e e425 fbbd f7a5 58be f25e e13d
00000020: 1621 383d 05cf 8b3c 7a48 ddbc 000e 68bd
00000030: 6c53 313c 1eb8 343d 1248 ebbd 4b7b ad3d
00000040: 1761 8d3d f161 2ebe aef9 293d ff37 e63a
00000050: f16b d73d f735 af3d aa89 c0bd 3002 d1bd
00000060: 8030 ad3d 33f2 b33d 174f 12be 366c 9a3d
00000070: a2bf d73d edcd 8f3c b745 e3bd f8d2 503d
00000080: 438c 12bc de9c 32bd 7dc8 2a3d 1e2f 883d
00000090: 6a33 ccbd 856a c23d 2999 31bd 3cf3 8ebd
000000a0: 032c 083e 2a51 f0bd f318 e13c e6ac 053e
000000b0: 528d 8bbd ddf3 2bbe e57d 653e 85fc 1ebe
000000c0: 3443 de3d 5605 14bd 4015 1a3d c34e 4fbd
000000d0: 5778 6cbd f0e5 b33c d33e 423e 0e3a 18be
000000e0: 89f2 9abd 6dc6 c63d 80cd 04bd 49a6 0cbd
000000f0: 8c55 103e 4f83 82bd 17a9 f4bd 499a ba3d
00000100: e192 fabd df51 e73d ec84 c3bc 7045 01be
00000110: be78 a63d fafd 04bc 7638 f4bd a021 363d
00000120: ff1b f0bc 0ba8 55bd e1af 61b9 fd53 bcbd
00000130: 7281 8abd 4701 d13d 4cde 4ebd ef98 04be
00000140: 0caa 793d 6bb3 ba3c 7926 1c3e 3658 1a3c
00000150: 25ae e13d e2fe eb3d db45 26be eee2 bfbd
00000160: 065f 3abe 00b5 fdbc 0d88 aabd 4975 25be
00000170: 7396 19be 9557 25be 84cb bbbd fd0e 2bbe
00000180: 2cde 08be 0fd0 97bd 3d04 653e f0c5 a4bd
00000190: 628f b33d ed82 4a3d c71b c0bd 88dc 01bd
000001a0: 7bcd 86bc e6c6 913d bbcf ffb9 df6b f6bb
000001b0: 0756 a0bd 0349 953d ab31 84bd 0b5c 9b3d
000001c0: 78a9 d23d 5081 52bd c294 a5bc 774f 95bd
000001d0: f214 47bd 792d 463e 11f7 84bd ddbd f8bd
000001e0: 9051 943d 800a cb3d c5fa 08bd 12dd ccbd
000001f0: 2683 fb3d 8ed6 083d b518 01be 02aa f83b
00000200: d221 4f3d af81 95bd 1071 e63d edc5 9d3d
00000210: eb27 e23d 147a 3dbe 5fa7 b53d 5932 bbbd
00000220: 93a2 a43d 9c4d 3ebd 1bc8 04bc 99b2 04be
00000230: 35c1 433e 43b2 58bd a57b 383e 763e 493d
00000240: 5ae0 2dbe 1c12 79bd 9b6b 043e 1868 b13d
00000250: 578b 0ebe f593 a13d fb5e 15bd 5993 b93d
00000260: b3e5 b3bd 519f 83bd 993a abbd b6cd e73d
00000270: bfca fa3d 668d 85bd ca23 b43d bf07 87bd
00000280: b9f7 16bd 79eb 64bd 52a7 bd3d 6373 073d
00000290: 5bd7 babb cc14 80bd 575f ebbd 955d 1d3e
000002a0: 7522 28bd 71a0 1a3e 77b5 57be a521 c73d
000002b0: 73b0 99bd 2e26 523d c362 ea3c a061 a93d
000002c0: d7db 34be adfc 17bd a8ba 4c3e ad27 b1bd
000002d0: 5a76 50bd 2bc6 acbb b53c df3d a625 33bd
000002e0: 2dd4 02bd 18fe 423d 270a 86bd 742e 1f3d
000002f0: 4fdd c83d 1eca a7bd 6e98 15bc 8560 ff3b
00000300: c300 1f3d acf2 063d 01d3 bbbd ce38 c03d
00000310: 7305 31be 8f20 1a3e 3e93 ddbd ba82 1bbe
00000320: dcf4 fe3d 849b 443e a4c1 1ebb b052 02be
00000330: b4f1 fdbd 73f6 c2bd 4897 a5bd b02a 2a3e
00000340: e7f3 fc3d 0303 d0bc 6e1c 3bbd d03b a63d
00000350: af7a ccbd 4118 d1bd b504 15be 2228 373d
00000360: 4524 3f3e 1c8d 8fbd 9bd2 903d 0c45 a2bd
00000370: f728 0d3d ef18 223e f15e 173e f2d2 06be
00000380: edd3 d63d 316c bdbd 90ee e53d b480 27bc
00000390: 5c99 f5bd 07f9 44bd b7f0 fe3d a220 0a3d
000003a0: 92b5 6bbd 9e28 c6bd ec44 143d aa07 96bc
000003b0: f21c f6bc 6dc9 b93d 1d6c 50be bb81 f53d
000003c0: e283 6a3d 73a3 f9bd d3bc e5bd 737e 443e
000003d0: 7612 943d bd11 e73b 974a aebd 7533 8fbc
000003e0: 0caf a23d 4fad bbbd 053f f33c cf3b 023e
000003f0: a765 5abe 7dcf 483e 033a 153c fb1e f9bd

block_shared_feature_extractor.2.weight f4 [8]
1.0413104 1.366931 1.1583724 1.1462064 0.7695948 1.2234032 1.1149403 0.9184396
00000000: a949 853f 98f7 ae3f 8c45 943f e4b6 923f
00000010: 2a04 453f 7a98 9c3f 5db6 8e3f dc1e 6b3f

block_shared_feature_extractor.2.bias f4 [8]
0.00029346545 -0.0006270904 0.0003965955 -0.019669443 0.003324908 -0.00092732173 -0.006971849 0.00084695057
00000000: 44dc 9939 5363 24ba 26ee cf39 d021 a1bc
00000010: b3e6 593b 8217 73ba 1c74 e4bb e405 5e3a

block_shared_feature_extractor.2.running_mean f4 [8]
-1.42782355e-05 5.413839e-06 0.00050542323 -3.1716572e-06 -8.697986e-05 1.9358865e-06 -5.826508e-06 7.9348e-06
00000000: 8e8c 6fb7 86a8 b536 617e 043a a8d8 54b6
00000010: f568 b6b8 47ea 0136 5381 c3b6 b51f 0537

block_shared_feature_extractor.2.running_var f4 [8]
0.057642415 0.041251443 2.5943878 0.046242215 0.1684956 0.035808355 0.13650139 0.058127083
00000000: 741a 6c3d 46f7 283d 730a 2640 7a68 3d3d
00000010: 1c8a 2c3e c8ab 123d 05c7 0b3e aa16 6e3d

block_shared_feature_extractor.3.weight f4 [16, 1, 64, 1]
0.14170052 0.16329394 -0.05365758 -0.03359913 0.090948895 -0.038062345 0.11762433 0.0011311411
0.13425453 -0.042683255 0.0395168 -0.028299863 -0.0571727 -0.17820409 -0.034701344 -0.117301844
-0.081091896 0.08789874 0.029014299 -0.109689355 0.15264627 -0.023709418 0.088092044 -0.0288231
-0.21099791 0.025975693 -0.008772828 -0.051461183 -0.13918538 0.091473535 -0.027169358 -0.11681705
-0.14359519 -0.00067627185 0.041515 0.038190987 -0.015601903 0.06568078 0.0074132853 0.008558332
-0.05646239 0.09905492 -0.0494494 0.032582704 0.01483993 0.04680575 0.09216048 0.058406956
0.12858538 0.016146585 0.12645409 0.09617471 -0.0652609 -0.07229208 -0.0034312245 0.034224957
0.01642462 0.051677782 0.010512823 0.0041884314 0.017330496 -0.026985722 0.114679754 -0.10279719
-0.040910345 -0.083281405 -0.10835499 -0.09579501 0.023113018 0.02971096 0.12851693 0.020220058
0.04903624 0.042807538 0.020175885 -0.004186842 0.10331467 -0.020677574 -0.0266843 0.030130934
-0.014584459 -0.0077762115 -0.02925904 -0.038597323 -0.004047674 -0.057841055 0.08634734 0.08251938
0.042669665 -0.006548196 0.116911784 -0.11170542 -0.03744257 0.024937378 -0.06867442 0.026037103
-0.05929924 0.13057183 -0.06629353 0.109358385 0.09877544 0.017180769 0.08467723 0.1486814
0.027424108 0.1098425 -0.09697656 -0.04231752 0.014820279 0.118546285 -0.050763648 -0.09291945
-0.101148136 0.1691215 0.09527508 -0.06366964 0.002764371 -0.07217121 -0.006902174 0.06641937
0.06348062 0.02779431 -0.13202855 -0.024670165 -0.11587409 0.066733055 -0.06856576 0.03858482
0.14418232 -0.20212072 -0.2849245 -0.12964314 -0.27521333 -0.04817126 0.0475503 0.011991258
0.011832448 0.014539124 -0.035884153 -0.046877068 -0.00013040994 -0.05308281 0.0064537493 0.0317654
0.021578923 0.06737786 0.036241863 -0.008098077 -0.042511996 -0.018028611 -0.053843893 0.01874976
0.016149096 0.13596383 0.12998751 0.10250873 -0.016560787 0.014080593 0.0010355964 0.06864044
0.0107491 0.013965654 0.16824658 0.1266008 0.02008283 0.0048495093 0.00016555682 0.0057080663
0.116278596 0.01324912 0.038046796 0.007367617 0.009884128 0.011113145 -0.005367509 -0.013433897
-0.0153108705 -0.07468608 -0.026801925 0.024067366 -0.031628434 0.0021885799 -0.004035715 -0.025678629
-0.031054452 -0.020576155 -0.08109978 -0.0015331387 -0.018902084 0.008441575 0.15073855 -0.023197047
0.03414021 0.0072825598 0.07035635 0.068367496 0.04705734 -0.018974932 -0.015383426 0.113659814
0.21899259 -0.149654 0.18825722 0.28356075 -0.033760577 -0.007380487 0.034231123 -0.013466219
-0.061250556 -0.112683445 -0.2012655 0.03298535 0.011904647 0.0046012625 0.018218067 -0.13705957
-0.010342309 -0.06056459 0.00645873 -0.100128345 -0.10601159 -0.0032945278 -0.15591502 0.0015514015
-0.09148221 -0.01679333 0.067328826 -0.099786885 0.032073427 -0.035148 -0.071555965 0.0025249512
0.092379496 0.031389304 -0.03773494 0.008530401 0.0065393127 0.10419014 0.01555297 -0.015265222
-0.011400212 0.09510182 0.022898525 0.005570779 -0.018685747 0.02382364 -0.011789249 0.0010359924
0.018891873 0.005847671 0.0427351 -0.1094972 0.014376276 0.021746391 0.0132727185 -0.030485298
00000000: f119 113e 8736 273e 0dc8 5bbd 3e9f 09bd
00000010: 6a43 ba3d 43e7 1bbd 06e5 f03d cc42 943a
00000020: 057a 093e a3d4 2ebd 5edc 213d 1dd5 e7bc
00000030: ec2d 6abd 227b 36be ff22 0ebd f33b f0bd
00000040: 8213 a6bd 4104 b43d 65af ed3c d0a4 e0bd
00000050: 4e4f 1c3e 413a c2bc 9a69 b43d 6c1e ecbc
00000060: d60f 58be faca d43c e8bb 0fbc f6c8 52bd
00000070: 9d86 0ebe 7a56 bb3d 4692 debc c73d efbd
00000080: 9e0a 13be d647 31ba a20b 2a3d 276e 1c3d
00000090: 209f 7fbc a583 863d 25eb f23b 3f38 0c3c
000000a0: 1b45 67bd 4edd ca3d 748b 4abd 7175 053d
000000b0: 2e23 733c 63b7 3f3d a2be bc3d 223c 6f3d
000000c0: e3ab 033e d845 843c 2e7d 013e 3ff7 c43d
000000d0: 82a7 85bd df0d 94bd 65de 60bb 782f 0c3d
000000e0: ed8c 863c 15ac 533d fa3d 2c3c 1c3f 893b
000000f0: aff8 8d3c 2911 ddbc 38dd ea3d 5587 d2bd
00000100: 9b91 27bd 718f aabd 39e9 ddbd 2d30 c4bd
00000110: 8357 bd3c 6664 f33c f199 033e 89a4 a53c
00000120: 39da 483d f556 2f3d e647 a53c c731 89bb
00000130: a496 d33d 0464 a9bc 0899 dabc 26d5 f63c
00000140: a8f3 6ebc 97cf febb a7b0 efbc 3a18 1ebd
00000150: 5aa2 84bb beea 6cbd e0d6 b03d ecff a83d
00000160: 63c6 2e3d 4092 d6bb 726f ef3d d0c5 e4bd
00000170: 615d 19bd 7949 cc3c 2da5 8cbd c34b d53c
00000180: c3e3 72bd 9fb4 053e e7c4 87bd 4af7 df3d
00000190: c74a ca3d afbe 8c3c 416b ad3d f03f 183e
000001a0: 86a8 e03c 1bf5 e03d a69b c6bd 2355 2dbd
000001b0: c1d0 723c 65c8 f23d 8bed 4fbd 8d4c bebd
000001c0: c126 cfbd 302e 2d3e 951f c33d 3a65 82bd
000001d0: 732a 353b 80ce 93bd a22b e2bb e106 883d
000001e0: 2102 823d e5b0 e33c 7e32 07be 1619 cabc
000001f0: 654f edbd 57ab 883d 356c 8cbd 1e0b 1e3d
00000200: 88a4 133e bcf8 4ebe a0e1 91be 2cc1 04be
00000210: c3e8 8cbe 3a4f 45bd 1ac4 423d fb76 443c
00000220: e2dc 413c 8235 6e3c 43fb 12bd 2b02 40bd
00000230: a7be 08b9 5c6d 59bd f979 d33b 701c 023d
00000240: 48c6 b03c 67fd 893d 5972 143d ccad 04bc
00000250: 0f21 2ebd bdb0 93bc 6a8b 5cbd 1999 993c
00000260: 1c4b 843c 1a3a 0b3e 721b 053e 19f0 d13d
00000270: 7daa 87bc 4ab2 663c d9bc 873a 5c93 8c3d
00000280: fe1c 303c 33d0 643c d548 2c3e a4a3 013e
00000290: bf84 a43c a2e8 9e3b 5299 2d39 bb0a bb3b
000002a0: 7923 ee3d d612 593c f5d6 1b3d 0d6c f13b
000002b0: 0af1 213c e913 363c eee1 afbb d919 5cbc
000002c0: 72da 7abc 04f5 98bd b68f dbbc ed28 c53c
000002d0: d18c 01bd 476e 0f3b 083e 84bb fd5b d2bc
000002e0: e865 febc 538f a8bc a417 a6bd 99f3 c8ba
000002f0: 8bd8 9abc 884e 0a3c 355b 1a3e bc07 bebc
00000300: 9bd6 0b3d 8aa2 ee3b fd16 903d 4204 8c3d
00000310: 33bf 403d 5171 9bbc c40a 7cbc 7ac6 e83d
00000320: 983f 603e e63e 19be 80c6 403e e02e 913e
00000330: 8848 0abd 03d8 f1bb ef35 0c3d 6ba1 5cbc
00000340: dde1 7abd 94c6 e6bd 8b18 4ebe a51b 073d
00000350: b50b 433c 30c6 963b 0e3e 953c 5859 0cbe
00000360: ca72 29bc 9312 78bd c1a3 d33b 1710 cdbd
00000370: 9b1c d9bd 01e9 57bb 30a8 1fbe 6558 cb3a
00000380: 065b bbbd 2a92 89bc b2e3 893d 115d ccbd
00000390: 6d5f 033d 59f7 0fbd ef8b 92bd a779 253b
000003a0: 7631 bd3d 1292 003d f48f 1abd 18c3 0b3c
000003b0: bb47 d63b a461 d53d e2d1 7e3c fb1a 7abc
000003c0: f4c7 3abc bec4 c23d b095 bb3c 158b b63b
000003d0: da12 99bc cb29 c33c b227 41bc 23ca 873a
000003e0: 21c3 9a3c d29d bf3b 000b 2f3d 1140 e0bd
000003f0: 798a 6b3c 7d25 b23c d175 593c 4ebc f9bc

block_shared_feature_extractor.4.weight f4 [16]
1.1118206 0.8971255 1.4006859 1.4149634 0.95601684 0.79914224 1.0603648 1.2724897
0.79615563 0.83544964 1.3667213 1.1134837 1.0483247 1.1629436 0.92003155 0.9167124
00000000: 2350 8e3f 04aa 653f ad49 b33f 851d b53f
00000010: 85bd 743f 9694 4c3f 09ba 873f f1e0 a23f
00000020: dbd0 4b3f 07e0 553f b9f0 ae3f a286 8e3f
00000030: 812f 863f 56db 943f 3087 6b3f aaad 6a3f

block_shared_feature_extractor.4.bias f4 [16]
-0.1946 -0.1437805 -0.31527328 -0.29268667 -0.09563478 -0.10061859 -0.21936327 -0.3649159
-0.13473272 -0.13069394 -0.3287224 -0.18942578 -0.22934553 -0.30515242 -0.10886708 -0.19589818
00000000: 3945 47be 323b 13be 806b a1be 07db 95be
00000010: 2bdc c3bd 1f11 cebd c4a0 60be 42d6 babe
00000020: 60f7 09be a2d4 05be 4d4e a8be d5f8 41be
00000030: 8ed9 6abe f03c 9cbe b4f5 debd 8899 48be

block_shared_feature_extractor.4.running_mean f4 [16]
9.83661e-05 0.0017516594 -0.0056305747 0.0015180274 -0.0043529957 -0.08947245 -0.019723693 -0.03082668
0.007933666 0.036383115 -0.001990313 -0.005444966 0.008237891 0.017166061 0.003860631 -0.0020454447
00000000: e649 ce38 f097 e53a af80 b8bb 8cf8 c63a
00000010: 93a3 8ebb 553d b7bd 9593 a1bc 3c88 fcbc
00000020: 35fc 013c 7606 153d e96f 02bb af6b b2bb
00000030: 38f8 063c d79f 8c3c a402 7d3b de0c 06bb

block_shared_feature_extractor.4.running_var f4 [16]
0.37991017 0.32935733 0.93668056 0.66416866 0.29306933 0.34036425 0.4373721 0.7152507
0.22224422 0.24164228 0.50602317 0.47725132 0.36689034 0.4930442 0.27920532 0.3689527
00000000: 9683 c23e 86a1 a83e 4cca 6f3f f506 2a3f
00000010: 2f0d 963e 3944 ae3e 3cef df3e ab1a 373f
00000020: fd93 633e 1371 773e bc8a 013f 495a f43e
00000030: 0dd9 bb3e 4a70 fc3e 00f4 8e3e 5ee7 bc3e

block_specific_main_feature_extractor.1.weight f4 [8, 1, 1, 32]
0.20780568 0.035660785 0.11638793 0.111483134 -0.01149487 -0.060070105 0.051007915 -0.10273986
0.11983612 0.0406951 -0.08032398 -0.13608696 -0.024996022 -0.0068035503 0.10131796 -0.0877576
0.16004013 -0.11258008 0.06892591 -0.17506169 0.045107838 -0.026846144 -0.13637105 -0.00048630047
-0.18486668 -0.2092266 -0.04357993 0.06562067 0.055693336 -0.117584296 -0.056615032 0.092747025
0.1032345 -0.09263735 -0.05456002 0.15459293 -0.06444038 0.06308788 -0.117796704 -0.09882036
-0.12366198 -0.16934241 0.098726965 -0.10936249 0.014361939 0.087660775 -0.009659486 0.09514683
0.12678987 -0.03880995 -0.1273772 -0.16136332 0.08170675 0.0404165 0.034390952 0.1235649
-0.19254671 -0.21265663 -0.101424865 -0.14491326 0.034327768 0.07974634 -0.18251571 -0.18348275
-0.041747477 0.054030795 0.0030743803 -0.04732096 0.09876255 0.14145957 0.055157606 0.11765192
0.024177598 0.020735633 -0.08134861 -0.09844526 0.09600067 -0.047738705 0.023382507 0.09351893
0.15776843 0.0063681896 0.1368355 0.002741991 -0.0057257833 -0.04777096 -0.057809524 0.19729136
0.2022939 0.043672074 0.13879883 -0.02667764 -0.037289955 0.116265245 -0.12381068 -0.06537985
-0.14029706 -0.10053184 -0.078664474 -0.10610445 0.09922209 -0.0662092 -0.007801909 -0.06627544
-0.06559232 -0.13230465 0.04981226 -0.04251053 0.012543821 0.10122023 0.085057415 -0.13271047
-0.01429145 -0.034121353 0.15675646 -0.0131533425 -0.100948006 -0.013184135 -0.10020834 0.014647883
0.16830601 0.1469586 -0.062387787 0.009655038 0.19228938 0.09490355 0.02513885 0.19299547
0.08766892 -0.032249786 0.035413552 0.02840578 0.04467615 -0.0906821 -0.11926752 0.060426354
0.21211052 -0.015391517 -0.10420948 0.06319108 -0.101415165 0.19102897 0.02578249 -0.14565976
0.11009865 -0.048639473 0.055459507 0.102628805 0.08675175 0.016767954 0.02685766 -0.07200277
0.11576555 -0.11584717 0.18061703 0.21044672 0.14074491 0.12279635 -0.0442633 -0.11030207
0.07581618 0.11003654 -0.18938027 -0.11548105 -0.03479322 0.09096853 -0.153898 -0.2010103
0.01971111 0.11423068 -0.20290501 0.029263904 0.10294537 -0.0014907973 -0.1637127 -0.03825667
-0.16065827 -0.09565356 0.089046836 0.029331168 0.07940684 -0.014818716 -0.08973763 0.108415015
0.02144174 0.14691842 0.1284986 0.004114292 0.12837668 0.16512361 -0.080516085 0.06371704
0.10917604 0.122610964 0.050904453 -0.091073185 0.11684284 -0.0888175 0.085742496 0.1668636
-0.12950283 -0.07949398 -0.123571225 0.06367311 -0.117422484 -0.1129208 -0.094179824 -0.022533758
-0.083008155 0.14011498 -0.1851214 0.0958587 -0.0472012 0.080079146 -0.20587301 0.078766294
0.0037684184 0.053596314 -0.12945366 -0.11268879 -0.13623488 -0.0697376 -0.19234416 -0.029350918
-0.19226442 0.051111612 -0.05242482 -0.087924264 -0.043932438 -0.035782333 -0.025991855 -0.1559452
0.13343976 0.054037042 -0.1330112 0.05802693 0.019691562 -0.024947284 0.0100173745 -0.17052211
0.12388128 0.034915254 0.06846559 0.015255981 0.085713126 -0.14929211 0.11076438 -0.02613403
0.012530234 0.1310889 0.121922545 -0.100990005 -0.076849446 0.14811069 0.013184176 0.15352164
00000000: 03cb 543e 0b11 123d cc5c ee3d 4551 e43d
00000010: fb54 3cbc 120c 76bd aded 503d 4769 d2bd
00000020: a46c f53d e8af 263d e680 a4bd 615a 0bbe
00000030: 75c4 ccbc 51f0 debb ca7f cf3d 42ba b3bd
00000040: 8fe1 233e 6390 e6bd 0729 8d3d 5f43 33be
00000050: ffc2 383d 72ec dbbc daa4 0bbe 25f6 feb9
00000060: b14d 3dbe 7f3f 56be de80 32bd 2164 863d
00000070: b21e 643d 09d0 f0bd 2ae5 67bd 27f2 bd3d
00000080: 9c6c d33d a7b8 bdbd 547a 5fbd 9c4d 1e3e
00000090: 51f9 83bd 3834 813d 663f f1bd 5462 cabd
000000a0: 7e42 fdbd 1968 2dbe 5d31 ca3d 71f9 dfbd
000000b0: 574e 6b3c 7e87 b33d d242 1ebc 57dc c23d
000000c0: 34d5 013e 2ff7 1ebd 2b6f 02be 6d3c 25be
000000d0: de55 a73d c68b 253d 87dd 0c3d 980f fd3d
000000e0: f72a 45be a9c2 59be d7b7 cfbd 2464 14be
000000f0: 469b 0c3d 0d52 a33d 66e5 3abe e7e2 3bbe
00000100: 67ff 2abd 654f 5d3d 8b7b 493b 9fd3 41bd
00000110: 0544 ca3d c7da 103e f1ec 613d 7df3 f03d
00000120: 1910 c63c c6dd a93c 1a9a a6bd ab9d c9bd
00000130: 009c c43d a989 43bd ac8c bf3c da86 bf3d
00000140: 0c8e 213e 3fac d03b 9b1e 0c3e fab2 333b
00000150: 5a9f bbbb 7bab 43bd aec9 6cbd bf06 4a3e
00000160: 2226 4f3e 7de1 323d 4821 0e3e 118b dabc
00000170: 5abd 18bd 791c ee3d 7490 fdbd dfe5 85bd
00000180: 08aa 0fbe a3e3 cdbd d71a a1bd 4a4d d9bd
00000190: f334 cb3d b098 87bd 28a7 ffbb 6bbb 87bd
000001a0: 4455 86bd df7a 07be f107 4c3d 861f 2ebd
000001b0: 9984 4d3c 8d4c cf3d 9532 ae3d 41e5 07be
000001c0: b026 6abc d5c2 0bbd c484 203e 1e81 57bc
000001d0: d4bd cebd 4502 58bc 083a cdbd adfd 6f3c
000001e0: 6958 2c3e 517c 163e 568a 7fbd 2a30 1e3c
000001f0: 82e7 443e cb5c c23d fdef cd3c 9ba0 453e
00000200: c38b b33d 5a18 04bd cd0d 113d 3db3 e83c
00000210: 57fe 363d 89b7 b9bd 8842 f4bd a081 773d
00000220: 8033 593e b42c 7cbc c86b d5bd 536a 813d
00000230: c1b2 cfbd 199d 433e cd35 d33c d527 15be
00000240: 677b e13d 2f3a 47bd 8229 633d 0d2f d23d
00000250: e7aa b13d f35c 893c 9804 dc3c 3076 93bd
00000260: 7d16 ed3d 4841 edbd acf3 383e 587f 573e
00000270: 6f1f 103e a77c fb3d 6f4d 35bd 0de6 e1bd
00000280: 8345 9b3d d65a e13d e7ec 41be 5481 ecbd
00000290: 5683 0ebd b54d ba3d 7097 1dbe a5d5 4dbe
000002a0: 3279 a13c c6f1 e93d 55c6 4fbe dbba ef3c
000002b0: 06d5 d23d db66 c3ba 4da4 27be 07b3 1cbd
000002c0: 9a83 24be 03e6 c3bd 305e b63d eb47 f03c
000002d0: 0ea0 a23d 33ca 72bc 5dc8 b7bd b108 de3d
000002e0: 97a6 af3c c871 163e 2395 033e 2fd1 863b
000002f0: 2d75 033e 2a16 293e 9ee5 a4bd 147e 823d
00000300: b097 df3d 751b fb3d 3081 503d 9484 babd
00000310: 4d4b ef3d f3e5 b5bd c399 af3d 4bde 2a3e
00000320: 649c 04be bdcd a2bd e912 fdbd 0c67 823d
00000330: 337b f0bd 0543 e7bd 5ae1 c0bd b798 b8bc
00000340: 2e00 aabd 4d7a 0f3e 7790 3dbe 9151 c43d
00000350: 0c56 41bd 8900 a43d 60d0 52be 3950 a13d
00000360: 92f7 763b cf87 5b3d 808f 04be 61c9 e6bd
00000370: 2881 0bbe 96d2 8ebd def5 44be 5671 f0bc
00000380: f7e0 44be 695a 513d 68bb 56bd a311 b4bd
00000390: 80f2 33bd 7f90 12bd dfec d4bc 19b0 1fbe
000003a0: 6fa4 083e f255 5d3d 1734 08be a5ad 6d3d
000003b0: 3350 a13c 3f5e ccbc ea1f 243c 599d 2ebe
000003c0: 78b5 fd3d 4c03 0f3d b037 8c3d 39f4 793c
000003d0: 5d8a af3d 08e0 18be 6fd8 e23d 0917 d6bc
000003e0: 9c4b 4d3c 2b3c 063e 87b2 f93d d9d3 cebd
000003f0: 3e63 9dbd 54aa 173e 7102 583c c734 1d3e

block_specific_main_feature_extractor.2.weight f4 [8]
1.0389594 1.1174487 1.1183234 1.1683782 1.1303686 1.1065395 1.1011907 1.1197622
00000000: 9ffc 843f 8f08 8f3f 3925 8f3f 6b8d 953f
00000010: ebaf 903f 16a3 8d3f d1f3 8c3f 5e54 8f3f

block_specific_main_feature_extractor.2.bias f4 [8]
0.00012941303 -0.0028288136 0.0005407352 -0.0049389303 -0.0016042017 0.000360442 0.0002539661 0.00035945818
00000000: 0cb3 0739 9e63 39bb 20c0 0d3a c0d6 a1bb
00000010: 1444 d2ba b5f9 bc39 c126 8539 a975 bc39

block_specific_main_feature_extractor.2.running_mean f4 [8]
5.923189e-11 2.587892e-10 1.1352208e-09 -2.9896335e-11 -7.8215066e-11 -1.5164853e-10 3.3652092e-10 -8.0987016e-11
00000000: 9740 822e 5845 8e2f 0806 9c30 487c 03ae
00000010: 2bff abae 44bd 26af 1c01 b92f a317 b2ae

block_specific_main_feature_extractor.2.running_var f4 [8]
0.19768104 0.8979482 0.8977913 0.19033101 0.6629747 0.16122855 0.6655929 0.09688404
00000000: e66c 4a3e efdf 653f a7d5 653f 22e6 423e
00000010: b6b8 293f 1919 253e 4c64 2a3f 246b c63d

block_specific_main_feature_extractor.3.weight f4 [16, 1, 64, 1]
0.026276411 0.07614879 -0.06495295 0.046652544 0.105529584 0.09966591 0.06637525 -0.1286444
0.10578109 0.14922327 0.03515686 0.103621334 0.08769749 -0.029014288 0.09185609 0.062063336
-0.026555708 0.0073761423 0.04536021 0.05294117 -0.11497566 0.08764522 -0.074473254 -0.057967436
0.056840204 -0.17316884 -0.18253143 -0.10527913 -0.14022437 -0.1264522 0.00052122364 -0.06982003
0.054522574 -0.07521285 -0.014306189 -0.20542416 -0.17767714 0.11679405 -0.053494707 -0.12131855
-0.031535015 -0.002118946 -0.032620706 -0.025775379 0.050565846 -0.07334354 0.032619085 0.0064236117
0.020639053 -0.021767313 -0.07681216 0.06483676 0.011235598 0.07541508 -0.017411789 -0.053270783
0.0696335 -0.0153002 0.088938355 0.029067632 0.14813076 -0.007788753 0.122149296 0.09331084
-0.116009496 -0.007778356 -0.057884 -0.0880629 0.060976792 0.023483528 -0.071742445 -0.020656675
0.015238811 0.011959873 0.10463534 0.1388517 0.009298293 -0.031028101 -0.07898078 0.051133413
-0.011144249 -0.00527994 -0.17435437 -0.072969384 0.036445204 0.10461762 -0.038783252 -0.01948633
0.037979033 0.07059501 -0.03018934 0.0024826415 -0.020431112 -0.002176942 0.054014485 -0.124734506
-0.13168226 -0.07153722 0.020718528 0.07226758 0.029785357 0.027318556 0.099334635 0.05523992
-0.008709458 -0.04980381 -0.14305747 -0.12986434 0.14710721 0.12900977 0.09087075 0.04875936
-0.01925177 -0.01744686 -0.04847573 0.07944773 0.10468183 0.13532132 0.021239553 -0.055998586
-0.008188692 -0.0016126782 0.09306474 -0.12817428 -0.014691997 0.052246932 -0.019469475 -0.091969825
0.0050309207 -0.019889437 -0.02350022 0.05361092 0.09592699 -0.058203068 -0.03252764 -0.038955834
0.033406068 -0.013401079 -0.03807538 0.045211025 -0.013962679 -0.043885782 -0.03299844 0.0063426113
0.12596375 0.008513146 0.044731263 -0.0173983 -0.07979791 -0.125996 0.02773748 -0.008872848
0.04802367 -0.27313608 -0.095127314 0.023789847 -0.07416155 -0.19416909 -0.17725082 -0.06231853
0.079929985 0.0057585104 -0.01805155 -0.16337974 -0.0050476245 -0.07286012 -0.098303676 -0.065889366
0.09124585 0.0945127 -0.008011875 0.09007379 -0.12337033 -0.12467461 0.0350574 0.024962883
0.033232562 -0.0885987 0.07238571 0.03455246 -0.055579018 0.053651594 -0.037469417 0.1041273
-0.08657287 0.04683991 -0.08087456 0.0182005 -0.061456785 0.017253395 0.099538416 -0.016849546
0.016380813 0.1598555 -0.049855422 0.122462705 -0.057210997 -0.11693592 0.041667905 -0.04149357
-0.07098809 -0.10561775 -0.05012372 -0.03469751 -0.072870806 -0.03711324 -0.021522995 0.071922466
0.13433644 -0.042780463 -0.06898734 0.10703863 0.114852406 0.12254097 -0.048084885 0.035453014
-0.032049 0.067726105 -0.010342286 -0.06590869 0.08460343 0.11605882 0.04589938 0.014615108
-0.029414454 -0.12150301 -0.041708436 0.2951741 0.18305779 -0.13154759 -0.011343293 0.12645608
0.014489571 -0.12146746 -0.085657276 0.118708044 0.07973488 -0.012987123 0.11688013 -0.019843401
-0.036241394 -0.058253832 0.017136125 -0.003830975 -0.119959414 0.05371005 -0.024450703 0.051396277
-0.108493984 -0.11757063 0.058143254 -0.025466194 -0.08081859 0.12419044 0.014641482 -0.004544461
00000000: a141 d73c e6f3 9b3d 0d06 85bd bd16 3f3d
00000010: e51f d83d a41d cc3d bfef 873d 5cbb 03be
00000020: c2a3 d83d fccd 183e a400 103d 6c37 d43d
00000030: be9a b33d 5faf edbc 0c1f bc3d 2036 7e3d
00000040: 5b8b d9bc 91b3 f13b a1cb 393d d7d8 583d
00000050: 5c78 ebbd 567f b33d 6f85 98bd 436f 6dbd
00000060: 46d1 683d 2c53 31be 85e9 3abe 969c d7bd
00000070: fa96 0fbe af7c 01be baa2 083a cefd 8ebd
00000080: 1053 5f3d 3209 9abd 8164 6abc b65a 52be
00000090: fff0 35be b831 ef3d 441d 5bbd dc75 f8bd
000000a0: dc2a 01bd 04de 0abb 4a9d 05bd e326 d3bc
000000b0: 221e 4f3d 2335 96bd 979b 053d 297d d23b
000000c0: 3b13 a93c 5d51 b2bc b24f 9dbd 23c9 843d
000000d0: 8315 383c 3973 9a3d 2ba3 8ebc 7732 5abd
000000e0: 029c 8e3d b1ad 7abc 5025 b63d 3e1f ee3c
000000f0: 97af 173e cc38 ffbb 6929 fa3d c119 bf3d
00000100: 6396 edbd 94e1 febb c617 6dbd 525a b4bd
00000110: cdc2 793d 8760 c03c b4ed 92bd 3038 a9bc
00000120: 35ac 793c 58f3 433c 0e4b d63d 242f 0e3e
00000130: de57 183c a52e febc adc0 a1bd 4571 513d
00000140: 5e96 36bc 5903 adbb f489 32be f970 95bd
00000150: 9147 153d c341 d63d 30db 1ebd cca1 9fbc
00000160: e78f 1b3d 1e94 903d a24f f7bc d0b3 223b
00000170: 265f a7bc 07ab 0ebb 4b3e 5d3d ce74 ffbd
00000180: b7d7 06be 1b82 92bd e7b9 a93c 0601 943d
00000190: 6c00 f43c 2acb df3c f56f cb3d 4143 623d
000001a0: 1db2 0ebc 14ff 4bbd a87d 12be 28fb 04be
000001b0: 46a3 163e 231b 043e 721a ba3d e5b7 473d
000001c0: e3b5 9dbc b8ec 8ebc 7d8e 46bd 7eb5 a23d
000001d0: 6d63 d63d ac91 0a3e 92fe ad3c c65e 65bd
000001e0: dd29 06bc 8060 d3ba ba98 be3d 1e40 03be
000001f0: b4b6 70bc e100 563d 737e 9fbc ad5a bcbd
00000200: 6cda a43b 2cef a2bc 8983 c0bc 2097 5b3d
00000210: 5f75 c43d 5766 6ebd b43b 05bd 2790 1fbd
00000220: cdd4 083d 3390 5bbc eef4 1bbd 322f 393d
00000230: b8c3 64bc 94c1 33bd 5f29 07bd aed5 cf3b
00000240: a4fc 003e b97a 0b3c 2138 373d e186 8ebc
00000250: 166d a3bd 1805 01be b639 e33c 6c5f 11bc
00000260: 78b4 443d 7ed8 8bbe 1cd2 c2bd ede2 c23c
00000270: 03e2 97bd 43d4 46be 3d81 35be b741 7fbd
00000280: 55b2 a33d e3b1 bc3b d8e0 93bc 054d 27be
00000290: 8b66 a5bb b037 95bd 7053 c9bd 01f1 86bd
000002a0: 1bdf ba3d e08f c13d 3d44 03bc 9b78 b83d
000002b0: 95a9 fcbd 6755 ffbd 5998 0f3d f67e cc3c
000002c0: de1e 083d 3c73 b5bd f63e 943d e186 0d3d
000002d0: d3a6 63bd c6c1 5b3d 8879 19bd b240 d53d
000002e0: 1e4d b1bd 35db 3f3d 90a1 a5bd 3719 953c
000002f0: 1cba 7bbd fe56 8d3c ccda cb3d 0f08 8abc
00000300: 0e31 863c 29b1 233e 3335 4cbd bacd fa3d
00000310: 1456 6abd 1a7c efbd f7ab 2a3d 29f5 29bd
00000320: 3462 91bd 1e4e d8bd 884e 4dbd fa1e 0ebd
00000330: 4a3d 95bd 0e04 18bd fe50 b0bc 164c 933d
00000340: 7e8f 093e 913a 2fbd 3c49 8dbd 1237 db3d
00000350: bd37 eb3d c3f6 fa3d a8f4 44bd 2e37 113d
00000360: d045 03bd fcb3 8a3d b172 29bc 23fb 86bd
00000370: 9044 ad3d 3fb0 ed3d fd00 3c3d 3574 6f3c
00000380: 95f6 f0bc 92d6 f8bd 77d6 2abd 0f21 973e
00000390: 8073 3b3e 69b4 06be 38d9 39bc b47d 013e
000003a0: aa65 6d3c efc3 f8bd 156d afbd 341d f33d
000003b0: 0a4c a33d f1c7 54bc d95e ef3d a18e a2bc
000003c0: db71 14bd 929b 6ebd 0f61 8c3c 1811 7bbb
000003d0: 48ad f5bd 12ff 5b3d d74c c8bc e784 523d
000003e0: 1832 debd dfc8 f0bd 9f27 6e3d 7b9e d0bc
000003f0: 3884 a5bd 8f57 fe3d d4e2 6f3c b4e9 94bb

block_specific_main_feature_extractor.4.weight f4 [16]
1.0778825 1.0211097 1.088911 1.0740582 1.0540764 1.0995256 1.1786804 1.1593521
1.115299 1.0806974 1.1428813 1.0110501 1.1143827 1.057867 1.1703312 1.0497283
00000000: 0ef8 893f b9b3 823f 7061 8b3f bd7a 893f
00000010: faeb 863f 41bd 8c3f 00df 963f a665 943f
00000020: 1ec2 8e3f 4b54 8a3f ef49 923f 176a 813f
00000030: 18a4 8e3f 3068 873f 6acd 953f 7f5d 863f

block_specific_main_feature_extractor.4.bias f4 [16]
0.018184997 0.05100245 0.08134136 0.0030132548 -0.010445614 0.01597773 -0.05448992 0.1156146
0.07637897 0.035206765 -0.051446076 0.011097491 0.07376531 0.115697145 -0.050602034 0.047386535
00000000: b4f8 943c f2e7 503d 4d96 a63d 077a 453b
00000010: 1524 2bbc bae3 823c d330 5fbd 59c7 ec3d
00000020: 946c 9c3d f834 103d 1fb9 52bd 40d2 353c
00000030: 4412 973d a0f2 ec3d 1444 4fbd 6218 423d

block_specific_main_feature_extractor.4.running_mean f4 [16]
-0.026204782 -0.007517862 0.008624495 -0.0035529968 0.009985744 0.012291691 -0.015815686 0.016607832
0.026733665 -0.023752602 -0.006345558 0.007046418 -0.0009818255 0.025770642 -0.011944187 0.0073494692
00000000: 69ab d6bc 6658 f6bb c14d 0d3c 65d9 68bb
00000010: 3f9b 233c 1763 493c e68f 81bc 260d 883c
00000020: 8f00 db3c d194 c2bc 66ee cfbb a3e5 e63b
00000030: 99b0 80ba f41c d33c 8db1 43bc d1d3 f03b

block_specific_main_feature_extractor.4.running_var f4 [16]
0.9804657 0.3261351 0.24904229 0.2914868 0.9228396 0.11257893 0.35812137 0.39004022
0.23929177 0.26757735 0.45754683 0.4186215 0.25540483 0.16181065 0.35507417 0.35671568
00000000: cdff 7a3f 2efb a63e f104 7f3e c23d 953e
00000010: 373f 6c3f c88f e63d af5b b73e 5ab3 c73e
00000020: e708 753e e6ff 883e 9443 ea3e 8f55 d63e
00000030: 6cc4 823e b1b1 253e 48cc b53e 70a3 b63e

block_specific_mtr_feature_extractor.1.weight f4 [8, 1, 1, 32]
0.046589658 0.104960166 0.11153639 -0.05014616 -0.13467957 -0.19301867 -0.19492286 -0.10948072
-0.03663845 0.10069473 -0.1286205 -0.11655646 -0.17489392 0.015233728 0.010273623 0.21541189
0.21592225 0.014550971 0.23792024 0.040440504 -0.108224265 -0.05850324 -0.0023892822 -0.08721186
0.17825675 -0.096447974 0.14976451 -0.11117941 0.13343623 -0.0520029 0.160648 0.020080809
0.005133729 0.028699206 -0.11677566 -0.0046130824 -0.17088097 -0.1312419 0.0062010754 -0.024120405
0.058764208 0.10235426 0.14506818 -0.040099755 -0.04284056 -0.04963613 0.053257972 -0.06370595
-0.14454713 -0.19278628 -0.138204 -0.052558597 0.07876806 0.10166789 0.17272314 0.1729125
0.11978055 -0.08766039 0.07611929 -0.0032549263 0.05555223 -0.014963724 0.11829177 0.009537456
-0.026588691 0.052685138 -0.039742306 0.06538442 -0.148117 0.12666936 0.06151126 -0.16157794
0.011038431 0.13603623 -0.07171196 -0.03374805 0.06825741 -0.12775545 0.09429533 0.08400065
-0.064018205 -0.19973864 0.19379944 0.13693845 -0.25607836 0.062317338 0.07425222 -0.015122079
-0.06418437 -0.012670323 0.16930944 -0.1334224 -0.06654538 0.118505724 -0.0045782803 -0.029406393
-0.019063553 0.03446291 -0.042979673 0.043562144 0.023242796 -0.10962905 0.068143524 0.039772034
-0.021766283 -0.037613742 -0.044682432 0.14546315 -0.051594585 -0.15362884 0.22251618 -0.07277561
-0.10654195 0.077512205 0.054299485 0.0057030907 -0.14356442 0.030081356 0.19582705 -0.21619593
0.12707537 -0.08831018 0.022049554 0.03546781 -0.006322761 0.008712464 -0.08062598 0.060187817
-0.124950096 -0.12873402 -0.19705378 -0.112453945 -0.108250074 0.12525459 0.085045226 0.24484284
0.14580686 0.02190384 0.11358444 0.04967341 -0.0040323967 -0.09198078 0.019190084 -0.006222877
0.18979271 0.04789941 0.1643164 0.046339132 -0.16070652 -0.17229366 -0.184596 -0.06476903
0.02009424 0.012337846 -0.039999392 0.0921159 -0.022975693 0.1390849 0.049484838 -0.039155006
-0.119082324 -0.0036607606 -0.1330822 -0.14164566 -0.08370149 -0.026778303 -0.088563174 -0.11733868
0.031034272 -0.056758545 0.008533251 0.012175745 -0.11420251 0.09397412 0.1181145 0.09961922
0.07502206 0.12235979 -0.024626564 0.029154796 -0.14198403 -0.12128754 -0.12415504 -0.08467154
0.1619926 0.1722566 0.16855672 0.040642947 0.015477955 0.08023295 -0.04423174 -0.059611466
-0.1009628 0.015405511 0.030509587 -0.05008731 0.072809026 0.03218025 -0.013344052 0.08988574
0.07117419 -0.11293391 -0.21142961 -0.23413014 -0.06833005 -0.19349736 0.02951475 0.045961168
0.18346827 0.12511371 0.18580912 0.11640793 0.08510055 0.108813554 0.06967749 -0.0068591456
0.019964468 -0.0726744 -0.07783362 0.07148667 -0.13992989 0.06021051 -0.062456135 -0.03364728
0.045274355 -0.040958453 -0.056985673 -0.020872563 -0.02758139 -0.0025396866 0.106018655 0.18804817
0.15071842 -0.06122981 0.04090912 -0.111705035 -0.2117808 0.045097522 -0.09224902 0.005949332
0.022793226 0.027143091 0.15645061 0.114733845 0.09558272 -0.115289025 -0.016191566 -0.17763554
-0.11791461 0.10032409 0.018360993 0.14643224 0.064723276 0.021207098 -0.10610528 -0.15046324
00000000: ccd4 3e3d 5bf5 d63d 316d e43d 0f66 4dbd
00000010: 71e9 09be b0a6 45be dc99 47be 6d37 e0bd
00000020: 3312 16bd 0a39 ce3d 18b5 03be 27b5 eebd
00000030: 6417 33be e396 793c b352 283c ef94 5c3e
00000040: b91a 5d3e 3267 6e3c 5da1 733e f1a4 253d
00000050: afa4 ddbd 18a1 6fbd 8195 1cbb 229c b2bd
00000060: f088 363e 8486 c5bd de5b 193e 08b2 e3bd
00000070: 82a3 083e fe00 55bd e980 243e 8280 a43c
00000080: d738 a83b 991a eb3c 1428 efbd 5729 97bb
00000090: 6cfb 2ebe 4764 06be 6432 cb3b 2898 c5bc
000000a0: bdb2 703d 1c9f d13d c18c 143e a43f 24bd
000000b0: 9579 2fbd 414f 4bbd 0825 5a3d 4478 82bd
000000c0: 2a04 14be c469 45be 5985 0dbe af47 57bd
000000d0: 2651 a13d 4137 d03d 56de 303e f90f 313e
000000e0: 814f f53d 4a87 b3bd 6ee4 9b3d 9a50 55bb
000000f0: bc8a 633d 682a 75bc f542 f23d fd42 1c3c
00000100: 87d0 d9bc 5fcc 573d d4c8 22bd 44e8 853d
00000110: fcab 17be 9db5 013e 3bf3 7b3d b074 25be
00000120: 89da 343c 154d 0b3e b8dd 92bd 653b 0abd
00000130: 8aca 8b3d 53d2 02be e91d c13d 8808 ac3d
00000140: fa1b 83bd 4988 4cbe 5c73 463e 9839 0c3e
00000150: b41c 83be 7740 7f3d 8c11 983d 99c2 77bc
00000160: 1873 83bd 3097 4fbc 745f 2d3e e29f 08be
00000170: f248 88bd 21b3 f23d 6605 96bb ade5 f0bc
00000180: 2b2b 9cbc fb28 0d3d 740b 30bd 386e 323d
00000190: ad67 be3c 3285 e0bd d58e 8b3d 00e8 223d
000001a0: 344f b2bc de10 1abd ed04 37bd 4bf4 143e
000001b0: d854 53bd e150 1dbe 48db 633e 610b 95bd
000001c0: aa32 dabd b8be 9e3d 2369 5e3d fee0 ba3b
000001d0: 8d02 13be 2d6d f63c e386 483e 7762 5dbe
000001e0: 0c20 023e f8db b4bd 44a1 b43c b246 113d
000001f0: 2a2f cfbb b9be 0e3c 3c1f a5bd 8087 763d
00000200: d6e5 ffbd dad2 03be 77c8 49be 414e e6bd
00000210: 37b2 ddbd bd42 003e 312c ae3d 15b8 7a3e
00000220: 654e 153e af6f b33c f59e e83d 5876 4b3d
00000230: 3222 84bb 6b60 bcbd 8634 9d3c 47e9 cbbb
00000240: 0559 423e 2c32 443d 8f42 283e 1ace 3d3d
00000250: 4090 24be c06d 30be bc06 3dbe a0a5 84bd
00000260: ad9c a43c ad24 4a3c 67d6 23bd 43a7 bc3d
00000270: 8537 bcbc 466c 0e3e 9db0 4a3d 0061 20bd
00000280: 6fe1 f3bd 5fe9 6fbb b346 08be 8f0b 11be
00000290: b06b abbd 2c5e dbbc 9c60 b5bd 434f f0bd
000002a0: 963b fe3c a67b 68bd 0ccf 0b3c c77c 473c
000002b0: 01e3 e9bd 8175 c03d 04e6 f13d 2905 cc3d
000002c0: 2aa5 993d c597 fa3d a6bd c9bc 0ad6 ee3c
000002d0: 4364 11be 9a65 f8bd ff44 febd 4668 adbd
000002e0: 63e1 253e 0964 303e 229a 2c3e 3879 263d
000002f0: 4097 7d3c 2c51 a43d 572c 35bd 272b 74bd
00000300: 96c5 cebd 6567 7c3c 3eef f93c 5a28 4dbd
00000310: e61c 953d 70cf 033d 03a1 5abc 0416 b83d
00000320: c6c3 913d e549 e7bd 0181 58be d0bf 6fbe
00000330: a0f0 8bbd 2c24 46be ebc8 f13c c741 3c3d
00000340: 1bdf 3b3e cf1d 003e bf44 3e3e 4867 ee3d
00000350: 3249 ae3d a4d9 de3d 12b3 8e3d afc2 e0bb
00000360: 868c a33c 51d6 94bd 3c67 9fbd 9a67 923d
00000370: c849 0fbe 4c9f 763d 01d2 7fbd bbd1 09bd
00000380: 9a71 393d 0dc4 27bd cf69 69bd f0fc aabc
00000390: 5ef2 e1bc df70 26bb 4f20 d93d b38f 403e
000003a0: ee55 1a3e 1ccc 7abd 5290 273d 9cc5 e4bd
000003b0: 11dd 58be 2eb8 383d 0eed bcbd 9df2 c23b
000003c0: dcb8 ba3c 305b de3c 9734 203e 94f9 ea3d
000003d0: e0c0 c33d a71c ecbd 2da4 84bc 17e6 35be
000003e0: 377d f1bd b776 cd3d cb69 963c 55f2 153e
000003f0: a38d 843d 82ba ad3c ba4d d9bd 0913 1abe

block_specific_mtr_feature_extractor.2.weight f4 [8]
0.9717205 1.1220418 1.371862 1.4867688 1.0644381 0.7568941 1.1102269 1.0974276
00000000: adc2 783f 119f 8f3f 2d99 af3f 714e be3f
00000010: 823f 883f d0c3 413f ea1b 8e3f 8278 8c3f

block_specific_mtr_feature_extractor.2.bias f4 [8]
-0.0020386002 -0.0037819159 -0.0006976853 0.0002637581 0.00030820267 -0.00030337187 -0.00016927958 -0.0011622609
00000000: 099a 05bb 05da 77bb dee4 36ba 0349 8a39
00000010: 4396 a139 e20d 9fb9 a480 31b9 0157 98ba

block_specific_mtr_feature_extractor.2.running_mean f4 [8]
-3.5460423e-07 9.8993705e-06 1.9841696e-05 -1.4232726e-06 -5.6913195e-05 4.906733e-05 4.6482917e-05 4.3735345e-06
00000000: 6f60 beb4 7915 2637 b871 a637 4607 bfb5
00000010: 14b6 6eb8 a5cd 4d38 a7f6 4238 60c0 9236

block_specific_mtr_feature_extractor.2.running_var f4 [8]
0.46522343 0.37249276 0.035674118 0.026797634 0.46688202 0.54192555 0.41492388 0.2501398
00000000: c431 ee3e 5fb7 be3e 061f 123d b686 db3c
00000010: 290b ef3e a2bb 0a3f e770 d43e 5312 803e

block_specific_mtr_feature_extractor.3.weight f4 [16, 1, 64, 1]
0.08755538 -0.11344722 0.1433208 -0.02502282 -0.1167009 -0.052902006 -0.05114438 0.047220267
0.048861593 -0.09377762 0.054971013 -0.109898716 -0.0367789 -0.022382757 0.09018575 -0.09197901
-0.10449231 0.0026895932 -0.026187394 -0.095618464 0.031380147 -0.015460297 0.0856041 -0.049512558
-0.009495058 0.02703629 0.05076184 -0.11575578 0.010669115 -0.043529537 -0.018514609 -0.04148535
-0.119116865 0.010142563 0.065842055 0.029445585 -0.059090234 0.016319731 0.028291814 -0.0069788927
-0.11632027 -0.046748787 -0.067326 -0.15130924 -0.12817746 -0.034217022 0.17126115 -0.06492411
0.0100604445 -0.03210432 0.09621686 0.10761753 -0.06080158 -0.010615569 -0.05435165 -0.09701809
0.0820625 -0.07352486 0.08940904 -0.039331786 0.05763781 -0.04469698 -0.1364314 0.027500587
-0.0715202 -0.017548693 0.01081283 -0.0005880636 0.0148126 0.16140868 -0.009068382 0.006685269
0.053078976 -0.053372424 0.03371553 0.032887645 -0.08539206 0.038649306 0.050142437 -0.12355832
-0.015877282 -0.027828673 -0.01776854 -0.058194723 0.12585436 0.018870419 0.07230174 0.09326309
0.0050880127 -0.08315202 0.036336515 -0.054158654 -0.06756207 -0.07376968 -0.07279326 0.12515363
0.1334883 0.035847157 0.030618982 0.03530645 0.019311601 -0.0737378 -0.0451412 0.10170572
0.10620776 -0.13726862 0.12988164 0.10564965 0.028083961 0.0030275339 -0.09582722 -0.008357199
-0.010411756 -0.04465016 0.08590341 0.081217706 -0.05612581 0.13962874 -0.018672366 -0.05585861
-0.10964148 0.06538407 -0.08183943 -0.04178832 -0.12068205 0.049843058 -0.11609183 0.0057431115
-0.020897489 0.094814405 0.008933835 0.1694338 -0.061097734 -0.045572102 -0.020707916 0.074589446
0.033627898 -0.015679345 0.011529242 0.015375014 -0.00095249026 -0.06410601 -0.09335468 -0.0008932719
-0.019703826 0.09138663 -0.058947407 0.012785675 0.022376733 0.078003064 0.101823166 0.0361066
-0.0902938 0.077005826 -0.16486822 -0.03780957 -0.036024623 -0.049200874 -0.1376854 0.03881357
-0.1579253 0.12697008 0.07592924 0.007613788 0.11798631 0.05015918 -0.013567348 -0.051014367
0.06162189 0.036017362 -0.02935789 -0.026604002 0.11772102 -0.014647182 0.101175465 0.03331388
-0.0056096422 -0.16609707 0.04976458 0.0026384608 -0.009089518 -0.14117184 -0.014856868 0.14555793
-0.06156424 0.02035427 -0.09192229 0.05368358 -0.052967925 0.24291004 0.0077919876 0.09618766
0.06640989 -0.00452756 -0.04089459 0.09630592 -0.003617858 0.10445428 -0.059334148 0.015835548
0.10569653 0.07274941 0.047543317 0.119637266 -0.11702753 -0.01577748 -0.0016112794 0.024937117
0.022533154 0.09084973 0.05231652 0.13955545 0.010476453 0.10148776 -0.024987498 0.033027846
0.033543352 -0.011042832 0.04221615 0.0040546996 -0.029625688 -0.045202184 -0.07058536 -0.009283078
-0.09786673 0.0007032022 -0.11849386 -0.050185338 -0.057112455 0.06443086 -0.07618417 -0.10194015
0.00010922158 0.0010410816 -0.082221664 -0.025003105 0.053099602 0.008086779 0.014214491 0.0891813
0.10045045 0.1865174 -0.038578425 0.07756854 0.06741736 0.100436315 0.08157796 0.14970681
0.062758595 -0.026969237 0.13599803 0.011790666 -0.02105455 -0.098066784 0.032674335 0.05894386
00000000: 3c50 b33d 0457 e8bd b0c2 123e a8fc ccbc
00000010: e200 efbd c6af 58bd c57c 51bd 0a6a 413d
00000020: 1823 483d 7b0e c0bd 4929 613d 9412 e1bd
00000030: 79a5 16bd 0b5c b7bc 4eb3 b83d 7e5f bcbd
00000040: 1000 d6bd e343 303b f286 d6bc 9dd3 c3bd
00000050: 7888 003d 304d 7dbc 3451 af3d aecd 4abd
00000060: 2991 1bbc 367b dd3c a6eb 4f3d 5e11 edbd
00000070: 83cd 2e3c 074c 32bd f3ab 97bc 8bec 29bd
00000080: 8bf3 f3bd fe2c 263c 33d8 863d de37 f13c
00000090: 9a08 72bd f5b0 853c 3cc4 e73c 32af e4bb
000000a0: 5239 eebd a87b 3fbd 37e2 89bd cff0 1abe
000000b0: f440 03be 2627 0cbd 155f 2f3e eff6 84bd
000000c0: 90d4 243c d27f 03bd 580d c53d 9466 dc3d
000000d0: 140b 79bd ecec 2dbc d69f 5ebd 6cb1 c6bd
000000e0: 6210 a83d 3494 96bd 161c b73d 5e1a 21bd
000000f0: a015 6c3d 2e14 37bd acb4 0bbe e948 e13c
00000100: 2f79 92bd 47c2 8fbc 4c28 313c 4828 1aba
00000110: 8cb0 723c 5148 253e 8d93 14bc 1a10 db3b
00000120: 5769 593d 0b9d 5abd 4c19 0a3d 32b5 063d
00000130: 08e2 aebd bc4e 1e3d 2862 4d3d 250c fdbd
00000140: 1311 82bc f5f8 e3bc 548f 91bc 975d 6ebd
00000150: f7df 003e 2396 9a3c ef12 943d b800 bf3d
00000160: 58b9 a63b 9b4b aabd 99d5 143d 77d5 5dbd
00000170: fc5d 8abd 8f14 97bd a214 95bd 4628 003e
00000180: 28b1 083e 78d4 123d a9d4 fa3c 7f9d 103d
00000190: 5d33 9e3c d803 97bd fbe5 38bd 174b d03d
000001a0: 7483 d93d 2590 0cbe b1ff 043e d85e d83d
000001b0: 5610 e63c 9769 463b 1041 c4bd a2ec 08bc
000001c0: 1296 2abc 16e3 36bd 21ee af3d 7855 a63d
000001d0: 2de4 65bd d6fa 0e3e caf6 98bc ffcb 64bd
000001e0: b68b e0bd 15e8 853d 6e9b a7bd 3b2a 2bbd
000001f0: 2728 f7bd 3c28 4c3d 8ec1 edbd b630 bc3b
00000200: 3631 abbc 0e2e c23d 385f 123c 0e80 2d3e
00000210: 9e41 7abd d0a9 3abd a6a3 a9bc 5ac2 983d
00000220: 68bd 093d f871 80bc 25e5 3c3c 7ce7 7b3c
00000230: 8ab0 79ba 034a 83bd bd30 bfbd 762a 6aba
00000240: eb69 a1bc ea28 bb3d d672 71bd 027b 513c
00000250: 694f b73c 12c0 9f3d aa88 d03d 84e4 133d
00000260: f5eb b8bd 3bb5 9d3d 37d3 28be 35de 1abd
00000270: 8e8e 13bd db86 49bd 67fd 0cbe fafa 1e3d
00000280: 2bb7 21be 7204 023e ca80 9b3d 157d f93b
00000290: cea2 f13d b673 4d3d 9549 5ebc 71f4 50bd
000002a0: 3c67 7c3d f186 133d f57f f0bc a3f0 d9bc
000002b0: b817 f13d bcfa 6fbc 1535 cf3d 2374 083d
000002c0: 17d1 b7bb 5a15 2abe f2d5 4b3d 07ea 2c3b
000002d0: 34ec 14bc 5a8f 10be 396a 73bc 230d 153e
000002e0: c92a 7cbd ffbd a63c c141 bcbd 50e3 5b3d
000002f0: e5f4 58bd 69bd 783e ee53 ff3b 09fe c43d
00000300: e901 883d ed5b 94bb 1681 27bd 0a3c c53d
00000310: 9619 6dbb 20ec d53d 5d08 73bd 8db9 813c
00000320: 6c77 d83d a5fd 943d c8bc 423d 6204 f53d
00000330: 21ac efbd c63f 81bc 9131 d3ba ed48 cc3c
00000340: 7397 b83c 6c0f ba3d d949 563d a0e7 0e3e
00000350: 6ea5 2b3c d1d8 cf3d 95b2 ccbc 3548 073d
00000360: c164 093d ffec 34bc d7ea 2c3d 49dd 843b
00000370: 92b1 f2bc ed25 39bd 0f8f 90bd 0d18 18bc
00000380: 5a6e c8bd 1a57 383a e9ac f2bd 248f 4dbd
00000390: c0ee 69bd 54f4 833d 7206 9cbd ffc5 d0bd
000003a0: e40d e538 e774 883a d563 a8bd 50d3 ccbc
000003b0: f87e 593d 697e 043c e5e3 683c afa4 b63d
000003c0: f7b8 cd3d 6bfe 3e3e 6904 1ebd 41dc 9e3d
000003d0: 1d12 8a3d 8eb1 cd3d 5812 a73d be4c 193e
000003e0: 9487 803d 97ee dcbc 1143 0b3e a32d 413c
000003f0: 977a acbc 3dd7 c8bd 86d5 053d 1e6f 713d

block_specific_mtr_feature_extractor.4.weight f4 [16]
0.9849465 0.95776993 1.1700009 1.1644781 1.4523407 1.4439317 1.5987358 1.5656238
1.1141999 1.0771614 0.65548 0.8330178 1.1702622 1.1321111 1.2378489 0.9794331
00000000: 7425 7c3f 6930 753f 97c2 953f 9e0d 953f
00000010: 4de6 b93f c1d2 b83f 60a3 cc3f 5c66 c83f
00000020: 1a9e 8e3f 6de0 893f 8acd 273f a840 553f
00000030: 27cb 953f 04e9 903f d571 9e3f 21bc 7a3f

block_specific_mtr_feature_extractor.4.bias f4 [16]
-0.10277897 -0.05120156 -0.10266918 -0.19542491 -0.35196322 -0.31430617 -0.43051708 -0.43837336
-0.23895968 -0.15792616 -0.16186722 -0.1533888 -0.11920764 -0.24138738 -0.20229591 -0.03940474
00000000: c87d d2bd bab8 51bd 3844 d2bd 781d 48be
00000010: 8634 b4be bdec a0be bc6c dcbe 7972 e0be
00000020: d9b1 74be 65b7 21be 85c0 25be f411 1dbe
00000030: 2323 f4bd 412e 77be a926 4fbe dd66 21bd

block_specific_mtr_feature_extractor.4.running_mean f4 [16]
-0.0034489792 -0.0014156286 0.014558112 -0.008124556 -0.001304127 0.0018465533 -0.00017731258 0.00019594622
0.007586886 -0.003882714 -0.015241213 0.0069063576 0.00242906 0.0033992897 0.0012967505 -0.0037530132
00000000: 4508 62bb 9d8c b9ba 2685 6e3c dc1c 05bc
00000010: 3eef aaba 0c08 f23a fcec 39b9 ea76 4d39
00000020: 6a9b f83b 2275 7ebb 48b6 79bc ba4e e23b
00000030: dd30 1f3b 9ec6 5e3b baf7 a93a 1df5 75bb

block_specific_mtr_feature_extractor.4.running_var f4 [16]
0.36434764 0.3450439 0.5267429 0.42073008 0.44586813 0.56716794 0.6393519 0.78022635
0.43213463 0.46387684 0.22669955 0.23031874 0.47463486 0.4032498 0.4560334 0.3766086
00000000: c68b ba3e 98a9 b03e 9fd8 063f ef69 d73e
00000010: d448 e43e eb31 113f 91ac 233f eabc 473f
00000020: c040 dd3e 4481 ed3e ed23 683e add8 6b3e
00000030: 5703 f33e c276 ce3e 367d e93e d8d2 c03e
